Found 41793 files belonging to 2 classes.
class names:  ['Drowsy', 'Non Drowsy']
image batch shape:  (32, 227, 227, 3)
label_batch:  [1 1 1 1 0 1 0 0 0 1 1 1 1 0 0 0 1 1 0 1 1 1 1 1 0 1 1 1 0 1 0 0]
image_bacth shape:  (227, 227, 3)
Model: "sequential_2"
_________________________________________________________________
 Layer (type)                Output Shape              Param #   
=================================================================
 sequential (Sequential)     (32, 227, 227, 3)         0         
                                                                 
 sequential_1 (Sequential)   (32, 227, 227, 3)         0         
                                                                 
 conv2d (Conv2D)             (32, 55, 55, 96)          34944     
                                                                 
 batch_normalization (BatchN  (32, 55, 55, 96)         384       
 ormalization)                                                   
                                                                 
 max_pooling2d (MaxPooling2D  (32, 27, 27, 96)         0         
 )                                                               
                                                                 
 conv2d_1 (Conv2D)           (32, 27, 27, 256)         614656    
                                                                 
 batch_normalization_1 (Batc  (32, 27, 27, 256)        1024      
 hNormalization)                                                 
                                                                 
 max_pooling2d_1 (MaxPooling  (32, 13, 13, 256)        0         
 2D)                                                             
                                                                 
 conv2d_2 (Conv2D)           (32, 13, 13, 384)         885120    
                                                                 
 batch_normalization_2 (Batc  (32, 13, 13, 384)        1536      
 hNormalization)                                                 
                                                                 
 conv2d_3 (Conv2D)           (32, 13, 13, 384)         1327488   
                                                                 
 batch_normalization_3 (Batc  (32, 13, 13, 384)        1536      
 hNormalization)                                                 
                                                                 
 conv2d_4 (Conv2D)           (32, 13, 13, 256)         884992    
                                                                 
 batch_normalization_4 (Batc  (32, 13, 13, 256)        1024      
 hNormalization)                                                 
                                                                 
 max_pooling2d_2 (MaxPooling  (32, 6, 6, 256)          0         
 2D)                                                             
                                                                 
 flatten (Flatten)           (32, 9216)                0         
                                                                 
 dense (Dense)               (32, 4096)                37752832  
                                                                 
 dropout (Dropout)           (32, 4096)                0         
                                                                 
 dense_1 (Dense)             (32, 4096)                16781312  
                                                                 
 dropout_1 (Dropout)         (32, 4096)                0         
                                                                 
 dense_2 (Dense)             (32, 1)                   4097      
                                                                 
=================================================================
Total params: 58,290,945
Trainable params: 58,288,193
Non-trainable params: 2,752
_________________________________________________________________
None
Epoch 1/5
   1/1045 [..............................] - ETA: 1:47:59 - loss: 1.2772 - accuracy: 0.5000
…
