Found 41793 files belonging to 2 classes.
class names:  ['Drowsy', 'Non Drowsy']
image batch shape:  (32, 227, 227, 3)
label batch:  [0 0 1 1 1 0 0 1 0 0 0 0 0 0 1 1 1 1 1 0 1 0 1 0 0 0 1 0 0 1 0 1]
image batch shape:  (227, 227, 3)
Model: "sequential_2"
_________________________________________________________________
 Layer (type)                Output Shape              Param #   
=================================================================
 conv2d (Conv2D)             (None, 227, 227, 64)      1792      
                                                                 
 conv2d_1 (Conv2D)           (None, 227, 227, 64)      36928     
                                                                 
 max_pooling2d (MaxPooling2D  (None, 113, 113, 64)     0         
 )                                                               
                                                                 
 conv2d_2 (Conv2D)           (None, 113, 113, 128)     73856     
                                                                 
 conv2d_3 (Conv2D)           (None, 113, 113, 128)     147584    
                                                                 
 max_pooling2d_1 (MaxPooling  (None, 56, 56, 128)      0         
 2D)                                                             
                                                                 
 conv2d_4 (Conv2D)           (None, 56, 56, 256)       295168    
                                                                 
 conv2d_5 (Conv2D)           (None, 56, 56, 256)       590080    
                                                                 
 conv2d_6 (Conv2D)           (None, 56, 56, 256)       590080    
                                                                 
 max_pooling2d_2 (MaxPooling  (None, 28, 28, 256)      0         
 2D)                                                             
                                                                 
 conv2d_7 (Conv2D)           (None, 28, 28, 512)       1180160   
                                                                 
 conv2d_8 (Conv2D)           (None, 28, 28, 512)       2359808   
                                                                 
 conv2d_9 (Conv2D)           (None, 28, 28, 512)       2359808   
                                                                 
 max_pooling2d_3 (MaxPooling  (None, 14, 14, 512)      0         
 2D)                                                             
                                                                 
 conv2d_10 (Conv2D)          (None, 14, 14, 512)       2359808   
                                                                 
 conv2d_11 (Conv2D)          (None, 14, 14, 512)       2359808   
                                                                 
 conv2d_12 (Conv2D)          (None, 14, 14, 512)       2359808   
                                                                 
 max_pooling2d_4 (MaxPooling  (None, 7, 7, 512)        0         
 2D)                                                             
                                                                 
 flatten (Flatten)           (None, 25088)             0         
                                                                 
 dense (Dense)               (None, 4096)              102764544 
                                                                 
 dense_1 (Dense)             (None, 4096)              16781312  
                                                                 
 dense_2 (Dense)             (None, 1)                 4097      
                                                                 
=================================================================
Total params: 134,264,641
Trainable params: 134,264,641
Non-trainable params: 0
_________________________________________________________________
None
Epoch 1/5
   1/1045 [..............................] - ETA: 12:58:10 - loss: 0.6871 - accuracy: 0.5625
…
