…
 batch_normalization (BatchNorm  (None, 114, 114, 64  256        ['conv2d[0][0]']                 
 alization)                     )                                                                 
                                                                                                  
 activation (Activation)        (None, 114, 114, 64  0           ['batch_normalization[0][0]']    
                                )                                                                 
                                                                                                  
 max_pooling2d (MaxPooling2D)   (None, 56, 56, 64)   0           ['activation[0][0]']             
                                                                                                  
 conv2d_1 (Conv2D)              (None, 56, 56, 64)   4160        ['max_pooling2d[0][0]']          
                                                                                                  
 batch_normalization_1 (BatchNo  (None, 56, 56, 64)  256         ['conv2d_1[0][0]']               
 rmalization)                                                                                     
                                                                                                  
 activation_1 (Activation)      (None, 56, 56, 64)   0           ['batch_normalization_1[0][0]']  
                                                                                                  
 conv2d_2 (Conv2D)              (None, 56, 56, 64)   36928       ['activation_1[0][0]']           
                                                                                                  
 batch_normalization_2 (BatchNo  (None, 56, 56, 64)  256         ['conv2d_2[0][0]']               
 rmalization)                                                                                     
                                                                                                  
 activation_2 (Activation)      (None, 56, 56, 64)   0           ['batch_normalization_2[0][0]']  
                                                                                                  
 conv2d_3 (Conv2D)              (None, 56, 56, 256)  16640       ['activation_2[0][0]']           
                                                                                                  
 conv2d_4 (Conv2D)              (None, 56, 56, 256)  16640       ['max_pooling2d[0][0]']          
                                                                                                  
 batch_normalization_3 (BatchNo  (None, 56, 56, 256)  1024       ['conv2d_3[0][0]']               
 rmalization)                                                                                     
                                                                                                  
 batch_normalization_4 (BatchNo  (None, 56, 56, 256)  1024       ['conv2d_4[0][0]']               
 rmalization)                                                                                     
                                                                                                  
 add (Add)                      (None, 56, 56, 256)  0           ['batch_normalization_3[0][0]',  
                                                                  'batch_normalization_4[0][0]']  
                                                                                                  
 activation_3 (Activation)      (None, 56, 56, 256)  0           ['add[0][0]']                    
                                                                                                  
 conv2d_5 (Conv2D)              (None, 56, 56, 64)   16448       ['activation_3[0][0]']           
                                                                                                  
 batch_normalization_5 (BatchNo  (None, 56, 56, 64)  256         ['conv2d_5[0][0]']               
 rmalization)                                                                                     
                                                                                                  
 activation_4 (Activation)      (None, 56, 56, 64)   0           ['batch_normalization_5[0][0]']  
                                                                                                  
 conv2d_6 (Conv2D)              (None, 56, 56, 64)   36928       ['activation_4[0][0]']           
                                                                                                  
 batch_normalization_6 (BatchNo  (None, 56, 56, 64)  256         ['conv2d_6[0][0]']               
 rmalization)                                                                                     
                                                                                                  
 activation_5 (Activation)      (None, 56, 56, 64)   0           ['batch_normalization_6[0][0]']  
                                                                                                  
 conv2d_7 (Conv2D)              (None, 56, 56, 256)  16640       ['activation_5[0][0]']           
                                                                                                  
 batch_normalization_7 (BatchNo  (None, 56, 56, 256)  1024       ['conv2d_7[0][0]']               
 rmalization)                                                                                     
                                                                                                  
 add_1 (Add)                    (None, 56, 56, 256)  0           ['batch_normalization_7[0][0]',  
                                                                  'activation_3[0][0]']           
                                                                                                  
 activation_6 (Activation)      (None, 56, 56, 256)  0           ['add_1[0][0]']                  
                                                                                                  
 conv2d_8 (Conv2D)              (None, 56, 56, 64)   16448       ['activation_6[0][0]']           
                                                                                                  
 batch_normalization_8 (BatchNo  (None, 56, 56, 64)  256         ['conv2d_8[0][0]']               
 rmalization)                                                                                     
                                                                                                  
 activation_7 (Activation)      (None, 56, 56, 64)   0           ['batch_normalization_8[0][0]']  
                                                                                                  
 conv2d_9 (Conv2D)              (None, 56, 56, 64)   36928       ['activation_7[0][0]']           
                                                                                                  
 batch_normalization_9 (BatchNo  (None, 56, 56, 64)  256         ['conv2d_9[0][0]']               
 rmalization)                                                                                     
                                                                                                  
 activation_8 (Activation)      (None, 56, 56, 64)   0           ['batch_normalization_9[0][0]']  
                                                                                                  
 conv2d_10 (Conv2D)             (None, 56, 56, 256)  16640       ['activation_8[0][0]']           
                                                                                                  
 batch_normalization_10 (BatchN  (None, 56, 56, 256)  1024       ['conv2d_10[0][0]']              
 ormalization)                                                                                    
                                                                                                  
 add_2 (Add)                    (None, 56, 56, 256)  0           ['batch_normalization_10[0][0]', 
                                                                  'activation_6[0][0]']           
                                                                                                  
 activation_9 (Activation)      (None, 56, 56, 256)  0           ['add_2[0][0]']                  
                                                                                                  
 conv2d_11 (Conv2D)             (None, 28, 28, 128)  32896       ['activation_9[0][0]']           
                                                                                                  
 batch_normalization_11 (BatchN  (None, 28, 28, 128)  512        ['conv2d_11[0][0]']              
 ormalization)                                                                                    
                                                                                                  
 activation_10 (Activation)     (None, 28, 28, 128)  0           ['batch_normalization_11[0][0]'] 
                                                                                                  
 conv2d_12 (Conv2D)             (None, 28, 28, 128)  147584      ['activation_10[0][0]']          
                                                                                                  
 batch_normalization_12 (BatchN  (None, 28, 28, 128)  512        ['conv2d_12[0][0]']              
 ormalization)                                                                                    
                                                                                                  
 activation_11 (Activation)     (None, 28, 28, 128)  0           ['batch_normalization_12[0][0]'] 
                                                                                                  
 conv2d_13 (Conv2D)             (None, 28, 28, 512)  66048       ['activation_11[0][0]']          
                                                                                                  
 conv2d_14 (Conv2D)             (None, 28, 28, 512)  131584      ['activation_9[0][0]']           
                                                                                                  
 batch_normalization_13 (BatchN  (None, 28, 28, 512)  2048       ['conv2d_13[0][0]']              
 ormalization)                                                                                    
                                                                                                  
 batch_normalization_14 (BatchN  (None, 28, 28, 512)  2048       ['conv2d_14[0][0]']              
 ormalization)                                                                                    
                                                                                                  
 add_3 (Add)                    (None, 28, 28, 512)  0           ['batch_normalization_13[0][0]', 
                                                                  'batch_normalization_14[0][0]'] 
                                                                                                  
 activation_12 (Activation)     (None, 28, 28, 512)  0           ['add_3[0][0]']                  
                                                                                                  
 conv2d_15 (Conv2D)             (None, 28, 28, 128)  65664       ['activation_12[0][0]']          
                                                                                                  
 batch_normalization_15 (BatchN  (None, 28, 28, 128)  512        ['conv2d_15[0][0]']              
 ormalization)                                                                                    
                                                                                                  
 activation_13 (Activation)     (None, 28, 28, 128)  0           ['batch_normalization_15[0][0]'] 
                                                                                                  
 conv2d_16 (Conv2D)             (None, 28, 28, 128)  147584      ['activation_13[0][0]']          
                                                                                                  
 batch_normalization_16 (BatchN  (None, 28, 28, 128)  512        ['conv2d_16[0][0]']              
 ormalization)                                                                                    
                                                                                                  
 activation_14 (Activation)     (None, 28, 28, 128)  0           ['batch_normalization_16[0][0]'] 
                                                                                                  
 conv2d_17 (Conv2D)             (None, 28, 28, 512)  66048       ['activation_14[0][0]']          
                                                                                                  
 batch_normalization_17 (BatchN  (None, 28, 28, 512)  2048       ['conv2d_17[0][0]']              
 ormalization)                                                                                    
                                                                                                  
 add_4 (Add)                    (None, 28, 28, 512)  0           ['batch_normalization_17[0][0]', 
                                                                  'activation_12[0][0]']          
                                                                                                  
 activation_15 (Activation)     (None, 28, 28, 512)  0           ['add_4[0][0]']                  
                                                                                                  
 conv2d_18 (Conv2D)             (None, 28, 28, 128)  65664       ['activation_15[0][0]']          
                                                                                                  
 batch_normalization_18 (BatchN  (None, 28, 28, 128)  512        ['conv2d_18[0][0]']              
 ormalization)                                                                                    
                                                                                                  
 activation_16 (Activation)     (None, 28, 28, 128)  0           ['batch_normalization_18[0][0]'] 
                                                                                                  
 conv2d_19 (Conv2D)             (None, 28, 28, 128)  147584      ['activation_16[0][0]']          
                                                                                                  
 batch_normalization_19 (BatchN  (None, 28, 28, 128)  512        ['conv2d_19[0][0]']              
 ormalization)                                                                                    
                                                                                                  
 activation_17 (Activation)     (None, 28, 28, 128)  0           ['batch_normalization_19[0][0]'] 
                                                                                                  
 conv2d_20 (Conv2D)             (None, 28, 28, 512)  66048       ['activation_17[0][0]']          
                                                                                                  
 batch_normalization_20 (BatchN  (None, 28, 28, 512)  2048       ['conv2d_20[0][0]']              
 ormalization)                                                                                    
                                                                                                  
 add_5 (Add)                    (None, 28, 28, 512)  0           ['batch_normalization_20[0][0]', 
                                                                  'activation_15[0][0]']          
                                                                                                  
 activation_18 (Activation)     (None, 28, 28, 512)  0           ['add_5[0][0]']                  
                                                                                                  
 conv2d_21 (Conv2D)             (None, 28, 28, 128)  65664       ['activation_18[0][0]']          
                                                                                                  
 batch_normalization_21 (BatchN  (None, 28, 28, 128)  512        ['conv2d_21[0][0]']              
 ormalization)                                                                                    
                                                                                                  
 activation_19 (Activation)     (None, 28, 28, 128)  0           ['batch_normalization_21[0][0]'] 
                                                                                                  
 conv2d_22 (Conv2D)             (None, 28, 28, 128)  147584      ['activation_19[0][0]']          
                                                                                                  
 batch_normalization_22 (BatchN  (None, 28, 28, 128)  512        ['conv2d_22[0][0]']              
 ormalization)                                                                                    
                                                                                                  
 activation_20 (Activation)     (None, 28, 28, 128)  0           ['batch_normalization_22[0][0]'] 
                                                                                                  
 conv2d_23 (Conv2D)             (None, 28, 28, 512)  66048       ['activation_20[0][0]']          
                                                                                                  
 batch_normalization_23 (BatchN  (None, 28, 28, 512)  2048       ['conv2d_23[0][0]']              
 ormalization)                                                                                    
                                                                                                  
 add_6 (Add)                    (None, 28, 28, 512)  0           ['batch_normalization_23[0][0]', 
                                                                  'activation_18[0][0]']          
                                                                                                  
 activation_21 (Activation)     (None, 28, 28, 512)  0           ['add_6[0][0]']                  
                                                                                                  
 conv2d_24 (Conv2D)             (None, 14, 14, 256)  131328      ['activation_21[0][0]']          
                                                                                                  
 batch_normalization_24 (BatchN  (None, 14, 14, 256)  1024       ['conv2d_24[0][0]']              
 ormalization)                                                                                    
                                                                                                  
 activation_22 (Activation)     (None, 14, 14, 256)  0           ['batch_normalization_24[0][0]'] 
                                                                                                  
 conv2d_25 (Conv2D)             (None, 14, 14, 256)  590080      ['activation_22[0][0]']          
                                                                                                  
 batch_normalization_25 (BatchN  (None, 14, 14, 256)  1024       ['conv2d_25[0][0]']              
 ormalization)                                                                                    
                                                                                                  
 activation_23 (Activation)     (None, 14, 14, 256)  0           ['batch_normalization_25[0][0]'] 
                                                                                                  
 conv2d_26 (Conv2D)             (None, 14, 14, 1024  263168      ['activation_23[0][0]']          
                                )                                                                 
                                                                                                  
…
 add_7 (Add)                    (None, 14, 14, 1024  0           ['batch_normalization_26[0][0]', 
                                )                                 'batch_normalization_27[0][0]'] 
                                                                                                  
 activation_24 (Activation)     (None, 14, 14, 1024  0           ['add_7[0][0]']                  
                                )                                                                 
                                                                                                  
 conv2d_28 (Conv2D)             (None, 14, 14, 256)  262400      ['activation_24[0][0]']          
                                                                                                  
 batch_normalization_28 (BatchN  (None, 14, 14, 256)  1024       ['conv2d_28[0][0]']              
 ormalization)                                                                                    
                                                                                                  
 activation_25 (Activation)     (None, 14, 14, 256)  0           ['batch_normalization_28[0][0]'] 
                                                                                                  
 conv2d_29 (Conv2D)             (None, 14, 14, 256)  590080      ['activation_25[0][0]']          
                                                                                                  
 batch_normalization_29 (BatchN  (None, 14, 14, 256)  1024       ['conv2d_29[0][0]']              
 ormalization)                                                                                    
                                                                                                  
 activation_26 (Activation)     (None, 14, 14, 256)  0           ['batch_normalization_29[0][0]'] 
                                                                                                  
 conv2d_30 (Conv2D)             (None, 14, 14, 1024  263168      ['activation_26[0][0]']          
                                )                                                                 
                                                                                                  
…
 add_12 (Add)                   (None, 14, 14, 1024  0           ['batch_normalization_42[0][0]', 
                                )                                 'activation_36[0][0]']          
                                                                                                  
 activation_39 (Activation)     (None, 14, 14, 1024  0           ['add_12[0][0]']                 
                                )                                                                 
                                                                                                  
 conv2d_43 (Conv2D)             (None, 7, 7, 512)    524800      ['activation_39[0][0]']          
                                                                                                  
 batch_normalization_43 (BatchN  (None, 7, 7, 512)   2048        ['conv2d_43[0][0]']              
 ormalization)                                                                                    
                                                                                                  
 activation_40 (Activation)     (None, 7, 7, 512)    0           ['batch_normalization_43[0][0]'] 
                                                                                                  
 conv2d_44 (Conv2D)             (None, 7, 7, 512)    2359808     ['activation_40[0][0]']          
                                                                                                  
 batch_normalization_44 (BatchN  (None, 7, 7, 512)   2048        ['conv2d_44[0][0]']              
 ormalization)                                                                                    
                                                                                                  
 activation_41 (Activation)     (None, 7, 7, 512)    0           ['batch_normalization_44[0][0]'] 
                                                                                                  
 conv2d_45 (Conv2D)             (None, 7, 7, 2048)   1050624     ['activation_41[0][0]']          
                                                                                                  
 conv2d_46 (Conv2D)             (None, 7, 7, 2048)   2099200     ['activation_39[0][0]']          
                                                                                                  
 batch_normalization_45 (BatchN  (None, 7, 7, 2048)  8192        ['conv2d_45[0][0]']              
 ormalization)                                                                                    
                                                                                                  
 batch_normalization_46 (BatchN  (None, 7, 7, 2048)  8192        ['conv2d_46[0][0]']              
 ormalization)                                                                                    
                                                                                                  
 add_13 (Add)                   (None, 7, 7, 2048)   0           ['batch_normalization_45[0][0]', 
                                                                  'batch_normalization_46[0][0]'] 
                                                                                                  
 activation_42 (Activation)     (None, 7, 7, 2048)   0           ['add_13[0][0]']                 
                                                                                                  
 conv2d_47 (Conv2D)             (None, 7, 7, 512)    1049088     ['activation_42[0][0]']          
                                                                                                  
 batch_normalization_47 (BatchN  (None, 7, 7, 512)   2048        ['conv2d_47[0][0]']              
 ormalization)                                                                                    
                                                                                                  
 activation_43 (Activation)     (None, 7, 7, 512)    0           ['batch_normalization_47[0][0]'] 
                                                                                                  
 conv2d_48 (Conv2D)             (None, 7, 7, 512)    2359808     ['activation_43[0][0]']          
                                                                                                  
 batch_normalization_48 (BatchN  (None, 7, 7, 512)   2048        ['conv2d_48[0][0]']              
 ormalization)                                                                                    
                                                                                                  
 activation_44 (Activation)     (None, 7, 7, 512)    0           ['batch_normalization_48[0][0]'] 
                                                                                                  
 conv2d_49 (Conv2D)             (None, 7, 7, 2048)   1050624     ['activation_44[0][0]']          
                                                                                                  
 batch_normalization_49 (BatchN  (None, 7, 7, 2048)  8192        ['conv2d_49[0][0]']              
 ormalization)                                                                                    
                                                                                                  
 add_14 (Add)                   (None, 7, 7, 2048)   0           ['batch_normalization_49[0][0]', 
                                                                  'activation_42[0][0]']          
                                                                                                  
 activation_45 (Activation)     (None, 7, 7, 2048)   0           ['add_14[0][0]']                 
                                                                                                  
 conv2d_50 (Conv2D)             (None, 7, 7, 512)    1049088     ['activation_45[0][0]']          
                                                                                                  
 batch_normalization_50 (BatchN  (None, 7, 7, 512)   2048        ['conv2d_50[0][0]']              
 ormalization)                                                                                    
                                                                                                  
 activation_46 (Activation)     (None, 7, 7, 512)    0           ['batch_normalization_50[0][0]'] 
                                                                                                  
 conv2d_51 (Conv2D)             (None, 7, 7, 512)    2359808     ['activation_46[0][0]']          
                                                                                                  
 batch_normalization_51 (BatchN  (None, 7, 7, 512)   2048        ['conv2d_51[0][0]']              
 ormalization)                                                                                    
                                                                                                  
 activation_47 (Activation)     (None, 7, 7, 512)    0           ['batch_normalization_51[0][0]'] 
                                                                                                  
 conv2d_52 (Conv2D)             (None, 7, 7, 2048)   1050624     ['activation_47[0][0]']          
                                                                                                  
 batch_normalization_52 (BatchN  (None, 7, 7, 2048)  8192        ['conv2d_52[0][0]']              
 ormalization)                                                                                    
                                                                                                  
 add_15 (Add)                   (None, 7, 7, 2048)   0           ['batch_normalization_52[0][0]', 
                                                                  'activation_45[0][0]']          
                                                                                                  
 activation_48 (Activation)     (None, 7, 7, 2048)   0           ['add_15[0][0]']                 
                                                                                                  
 average_pooling2d (AveragePool  (None, 4, 4, 2048)  0           ['activation_48[0][0]']          
 ing2D)                                                                                           
                                                                                                  
 flatten (Flatten)              (None, 32768)        0           ['average_pooling2d[0][0]']      
                                                                                                  
 dense (Dense)                  (None, 1)            32769       ['flatten[0][0]']                
                                                                                                  
==================================================================================================
Total params: 23,620,481
Trainable params: 23,567,361
Non-trainable params: 53,120
__________________________________________________________________________________________________
…
