Found 41793 files belonging to 2 classes.
class names:  ['Drowsy', 'Non Drowsy']
image batch shape:  (32, 227, 227, 3)
label_batch:  [0 0 1 1 1 0 1 0 1 0 1 0 0 1 1 0 1 1 0 1 0 1 0 1 0 1 1 0 0 0 0 0]
image_bacth shape:  (227, 227, 3)
Model: "sequential_2"
_________________________________________________________________
 Layer (type)                Output Shape              Param #   
=================================================================
 sequential (Sequential)     (32, 227, 227, 3)         0         
                                                                 
 sequential_1 (Sequential)   (32, 227, 227, 3)         0         
                                                                 
 conv2d (Conv2D)             (32, 225, 225, 32)        896       
                                                                 
 max_pooling2d (MaxPooling2D  (32, 112, 112, 32)       0         
 )                                                               
                                                                 
 conv2d_1 (Conv2D)           (32, 110, 110, 64)        18496     
                                                                 
 max_pooling2d_1 (MaxPooling  (32, 55, 55, 64)         0         
 2D)                                                             
                                                                 
 conv2d_2 (Conv2D)           (32, 53, 53, 64)          36928     
                                                                 
 max_pooling2d_2 (MaxPooling  (32, 26, 26, 64)         0         
 2D)                                                             
                                                                 
 conv2d_3 (Conv2D)           (32, 24, 24, 64)          36928     
                                                                 
 max_pooling2d_3 (MaxPooling  (32, 12, 12, 64)         0         
 2D)                                                             
                                                                 
 conv2d_4 (Conv2D)           (32, 10, 10, 64)          36928     
                                                                 
 max_pooling2d_4 (MaxPooling  (32, 5, 5, 64)           0         
 2D)                                                             
                                                                 
 flatten (Flatten)           (32, 1600)                0         
                                                                 
 dense (Dense)               (32, 64)                  102464    
                                                                 
 flatten_1 (Flatten)         (32, 64)                  0         
                                                                 
 dense_1 (Dense)             (32, 1)                   65        
                                                                 
=================================================================
Total params: 232,705
Trainable params: 232,705
Non-trainable params: 0
_________________________________________________________________
None
Epoch 1/5
   1/1045 [..............................] - ETA: 1:34:15 - loss: 0.6901 - accuracy: 0.5625
…
